AutogluonModels/ag-20231112_233601/models/NeuralNetTorch/T1/temp_model.pt (torch, 202850 bytes, 54 tensors)

weight f4 [6, 4]
000000 3f bb 90 bf 9b 4a 93 bf 74 75 82 be 22 de db be
       -1.1307143 -1.1507143 -0.25480235 -0.4294291
000010 ef 62 59 3f 14 f9 31 3f 3f 8f a5 be 11 a8 06 c0
       0.84916586 0.6952069 -0.3233585 -2.104008
000020 e4 ce ed 3e a0 7f 23 be d5 c5 b7 3f 94 6a 8a 3e
       0.46446908 -0.15966654 1.4357249 0.27034438
000030 d5 0a 33 3e 06 11 62 3f b9 76 14 be af 3c ec bd
       0.17484601 0.88307226 -0.14498414 -0.11535012
000040 01 db 6c 3f 4e 01 a0 3f dd 35 ff 3f d1 b5 6d 3d
       0.92521673 1.2500398 1.9938313 0.05803472
000050 1a 74 18 3f fd ee c7 be 24 83 51 bf 3e c3 12 c0
       0.59552157 -0.3904952 -0.8184073 -2.2931666

weight f4 [6, 4]
000000 36 8d 60 be 47 13 40 bf a3 b8 0f 3f 68 23 84 3e
       -0.21928868 -0.75029415 0.5614111 0.25808263
000010 c3 26 36 be f2 8e 2e bf 25 d9 70 3f b4 2b f7 3e
       -0.17788224 -0.6818687 0.94081336 0.4827553
000020 d9 de 10 bf 4a 9b 6b 3f d8 80 8f 3f 6b 0d a5 3f
       -0.5659004 0.9203383 1.1211195 1.289472
000030 db 97 be bf aa 9a 23 40 6d 89 f5 be de 33 ac 3e
       -1.4890093 2.556315 -0.4795641 0.33633322
000040 48 37 d0 bf f4 2d 0c bf f8 ef f1 be 7e 7b fc be
       -1.626687 -0.5475762 -0.47253394 -0.49312967
000050 02 aa 85 bf 29 cd 8b 3f bb 09 f5 bd f9 79 48 3f
       -1.0442507 1.0921985 -0.119647466 0.78311116

weight f4 [6, 4]
000000 96 dd c3 bd 29 d6 31 3f 7e 25 56 bf 6b c3 94 3b
       -0.095637485 0.6946741 -0.8365096 0.004539897
000010 7a e3 56 3f 98 0d cc be 2e 66 84 3f fa 50 b4 3e
       0.8394085 -0.3985412 1.0343683 0.3521803
000020 46 d8 a2 3d b4 60 8f 3f d2 b8 92 3e 56 8f df 3e
       0.07951407 1.1201386 0.28656632 0.43664044
000030 fc 21 4e bf 14 98 a6 bf 55 05 42 bf f9 c3 a9 bf
       -0.80520606 -1.301516 -0.75789386 -1.3262931
000040 14 8e 58 3e 15 0f aa be aa 82 d8 be 0c c4 6d 3e
       0.21147949 -0.33214632 -0.4228719 0.23219317
000050 26 35 46 3f 3e 48 27 be 68 22 b2 be a8 00 98 bf
       0.7742485 -0.16336152 -0.34791875 -1.18752

weight f4 [6, 4]
000000 9b 57 35 bf 36 34 85 3f 30 0e 18 bf 57 ef a2 bf
       -0.708368 1.0406559 -0.5939665 -1.2729291
000010 c7 db ac 3d 81 3c 28 bf d5 ff 1b 3f 10 88 39 bf
       0.08440357 -0.6571732 0.60937244 -0.7247324
000020 49 e9 85 be 38 31 03 3e b4 2d 80 3e c7 ae 95 3f
       -0.26154545 0.12811744 0.2503487 1.1693963
000030 b4 3a 98 3e 81 bf c2 3e 69 79 55 be a2 68 f6 bd
       0.29732287 0.3803673 -0.20847096 -0.12031676
000040 a2 b5 40 3e 78 10 45 bf 31 73 f2 bf 56 4a 0c 3e
       0.18819287 -0.76978254 -1.8941404 0.13700232
000050 0c 84 2e bf 0b d3 95 3e 77 6f 0b 3e ca e8 b9 3e
       -0.6817024 0.29262576 0.13616739 0.36310416

weight f4 [6, 4]
000000 c9 57 78 3f 89 81 7c bf f3 da 9b 3e 20 65 d4 bd
       0.9700895 -0.98635155 0.30440482 -0.103708506
000010 70 d4 7e 3f ed 6f 01 bf e5 db 42 3f 33 35 1d 3f
       0.99542904 -0.5056141 0.7611678 0.614093
000020 39 22 7e 3f 1f e8 be bf ad a1 15 3f c2 c3 23 3e
       0.9927097 -1.4914588 0.5844982 0.15992644
000030 d8 74 ce 3d 07 b9 53 bf c4 a4 21 3f 5e dd f5 bf
       0.1008088 -0.82704204 0.6314204 -1.9208181
000040 ea 9b a8 3f 11 c1 5a be c7 53 48 3f 7f 58 7e 3f
       1.3172581 -0.21362711 0.78252834 0.99353784
000050 14 e9 c8 3e eb 39 be bf eb d7 00 40 c4 b4 e2 3d
       0.39240324 -1.4861425 2.0131786 0.110696346

weight f4 [6, 4]
000000 6b 1c 04 bf 29 c7 db bf 6e 2c 02 bf b3 2e f3 be
       -0.5160586 -1.7170154 -0.50849044 -0.47496566
000010 8c 26 24 bf 0c 16 bc bf 4c 4f 60 bf 0a ab 04 c0
       -0.6412132 -1.4694228 -0.87621 -2.0729394
000020 f9 36 b1 be 75 6d c8 3f ce 9a 45 3e 33 f6 c1 3e
       -0.34612253 1.5658404 0.19297335 0.37883148
000030 ed 51 15 be 3e 57 24 3f 2b fa 95 be a1 c2 ab bf
       -0.14582033 0.6419562 -0.29292426 -1.3418771
000040 f4 f8 13 be c7 a7 09 bf f3 16 05 bf 3e de 5c 3f
       -0.14450437 -0.5377163 -0.5198814 0.86276615
000050 fc 41 5d bf 1f ed 50 3f 9a a8 90 3f 60 7f de bf
       -0.8642881 0.8161182 1.1301453 -1.7382622

weight f4 [6, 4]
000000 34 ee bc bf a6 1b e1 bf d8 b4 a8 3d d9 1e 89 bf
       -1.4760194 -1.7586563 0.08237618 -1.0712539
000010 b0 16 b8 3f 38 6a e1 bd d5 f1 16 3f bc 2a 26 be
       1.4381924 -0.11006588 0.58962756 -0.1622724
000020 b7 d1 bd 3f f4 82 35 bf 9d 49 39 3e 13 d1 ae 3f
       1.4829625 -0.70902944 0.18094487 1.3657554
000030 7f 7e 02 40 df 8e 28 3f c3 2f 3d bf ee c9 f8 be
       2.0389707 0.65843004 -0.73901004 -0.4859156
000040 7f 47 81 3e e0 22 12 bf 84 73 6e 3f ef 7b f6 3e
       0.2524986 -0.57084465 0.9314501 0.4814143
000050 81 a0 4e bf 30 5e 9f 3f c8 d1 80 3e 4c 95 17 bf
       -0.8071366 1.2450619 0.2516005 -0.59212184

weight f4 [6, 4]
000000 b1 fd 69 bf 27 eb 17 bf 22 fb 12 3e e6 77 85 bf
       -0.9140273 -0.5934319 0.14353612 -1.0427215
000010 d2 91 36 bf cf c5 0d c0 66 fb 30 bf c9 42 03 3f
       -0.71316254 -2.2151983 -0.69133604 0.5127378
000020 52 c3 1f bf b1 4b 65 be d9 31 00 bf 9d 77 46 3f
       -0.6240741 -0.22392155 -0.5007606 0.77526265
000030 12 b7 da 3d 24 34 89 bf c0 fa f0 bd 25 37 82 bf
       0.10679449 -1.0719037 -0.11766577 -1.0173079
000040 ad 66 99 bf 67 13 f1 3e 64 45 9d bf 8e 4e af bf
       -1.1984459 0.47085115 -1.2286801 -1.3695848
000050 3f a7 c2 3f e4 0e 8e bc 1e e9 ca be 9f 50 6f be
       1.520729 -0.017341085 -0.3963098 -0.23370598

weight f4 [6, 4]
000000 42 3b fe bd f4 e5 6f bd 63 44 cb 3e 04 30 90 3f
       -0.12413646 -0.05856891 0.39700612 1.1264653
000010 12 35 f7 3f 72 8b 81 3f e0 80 7f 3f ac b6 e0 be
       1.9313071 1.012068 0.9980602 -0.43889368
000020 2a 07 10 bf 4a 81 56 bf 10 4c b4 bf 7e 0a cd be
       -0.5626093 -0.8379103 -1.4085712 -0.40047067
000030 21 d5 9d be 5b 86 3e bd 02 94 05 3f ee 14 ce bf
       -0.30826667 -0.04651485 0.52178967 -1.6100137
000040 fc 77 b9 3e 28 14 13 c0 b1 ab 5d bf 76 f6 d6 bf
       0.36224353 -2.2981052 -0.86590105 -1.6793964
000050 78 62 0a 3f 38 c5 b4 bf 78 61 32 3f e5 89 ac bf
       0.540565 -1.4122686 0.69679976 -1.3479582

weight f4 [6, 4]
000000 df df a8 3e 44 14 cf bd a1 6b 5e 3e 6e cb 9b 3f
       0.329833 -0.10111287 0.21720745 1.2171457
000010 23 37 9f 3f fa e3 d1 bd 70 1c 09 40 a0 a5 98 3d
       1.2438701 -0.10248561 2.1423607 0.074534655
000020 3d 93 98 3e 08 ba 4a 3f 27 8e a2 3f 9e 1d 6e 3f
       0.29799834 0.7919011 1.2699631 0.9301394
000030 c0 41 0d 3f fb 68 c4 bf 3d b3 a6 3e 90 94 3e 3f
       0.5517845 -1.5344537 0.32558623 0.7444544
000040 7a 48 b9 3f 5b 15 83 40 20 24 8f 3f 15 9b c8 bf
       1.4475243 4.096357 1.11829 -1.5672327
000050 ae 27 2d bf 6a 48 0d 3f d7 8e 9b 3f 85 34 1e bf
       -0.6763867 0.5518862 1.2152966 -0.6179889

weight f4 [6, 4]
000000 ad f8 44 bf 22 c4 72 3e ae 50 24 3e d2 08 0f c0
       -0.7694195 0.23707631 0.16046402 -2.2349133
000010 86 e0 b0 3f 88 54 fe be 66 32 d7 3f 71 3c 83 bf
       1.3818519 -0.49673867 1.6812255 -1.025282
000020 6b 5a bc 3f 05 3c 96 be 5d ea 04 3f 86 1b 6d be
       1.4715093 -0.29342666 0.5192011 -0.2315503
000030 9b 74 23 bf cc 9e 8f 3f e6 b1 9b 3b ec d9 bc 3f
       -0.638498 1.1220336 0.0047514318 1.4754004
000040 15 6f 41 bf 66 e6 78 bd 45 0c 65 3f a1 d6 ee 3e
       -0.7556012 -0.0607666 0.89471847 0.46648124
000050 e8 15 ff be da 5c 80 3f 93 7e 09 bf 48 f1 d2 3e
       -0.498214 1.0028336 -0.5370876 0.41199708

weight f4 [6, 4]
000000 fe 9e 53 be 9e 1e 34 3e fa d0 5a 3f ef bd 5f 3e
       -0.2066612 0.17589805 0.8547512 0.21849798
000010 ea 76 6a 3e 07 7f 1b 3d 22 e5 d0 3e 98 aa 9f 3f
       0.22896925 0.03796294 0.40799814 1.2473936
000020 fa a8 a8 3e ad 99 cb bf 11 b5 16 bf b9 07 18 3f
       0.3294142 -1.5906273 -0.58870035 0.59386784
000030 5b b4 e6 3e e4 ff d5 bd 52 96 ae 3e 61 48 37 be
       0.45059475 -0.10449198 0.3409906 -0.17898704
000040 7b 5c b7 bf 87 d7 18 3f 84 5f 94 bf e8 cd f0 3c
       -1.4325098 0.5970387 -1.1591649 0.029395059
000050 a6 fb 46 3e 87 b5 64 bf 9f bd c4 3f 4d 5f 48 c0
       0.19431934 -0.8933949 1.5370368 -3.1308167

weight f4 [6, 4]
000000 67 4c 0d bf 08 b3 d9 be f2 0d a5 be a3 4f c5 bf
       -0.55194706 -0.42519403 -0.32237202 -1.5414928
000010 fe 88 8e bc e4 25 9c 3f 22 0c cc 3f 74 d7 cf bf
       -0.017399307 1.2199063 1.5941203 -1.6237626
000020 d0 db b9 bf d7 14 8d be 5c 8e 82 bf 72 6b 2f bf
       -1.4520206 -0.27554962 -1.0199695 -0.68523324
000030 52 e4 24 bd 76 51 b7 bf 19 02 65 3e 8d ff de bf
       -0.040256806 -1.4321735 0.22364081 -1.7421738
000040 6a 1a de 3f 16 90 2b 3f d3 7b 84 bf 6d 80 b3 bf
       1.7351811 0.6701673 -1.0350288 -1.4023567
000050 2b 9d 68 3f d6 d6 c4 be 59 f5 62 bf ab 84 09 3f
       0.9086482 -0.38445157 -0.8865562 0.5371806

weight f4 [6, 4]
000000 5a ff b9 bf 6e 7d 2a bd db e6 bf 3f 5e 08 0b 3f
       -1.4531052 -0.041623525 1.4992326 0.5430964
000010 3b 97 f3 3e 84 fb 21 3f 4e d8 ea 3f 38 3e 77 bf
       0.47576317 0.6327441 1.8347261 -0.96579313
000020 d9 17 a5 3f 29 ac 65 3f c3 ea f7 be d3 5f 97 bf
       1.2897903 0.8971582 -0.48421296 -1.1826118
000030 71 56 2e bf 54 10 16 c0 1b 41 af 3d 0e 98 46 be
       -0.6810065 -2.3447466 0.0855734 -0.19393942
000040 30 07 87 bd 5c ea 00 40 41 2f a8 be 30 a3 a4 3e
       -0.06593168 2.0143042 -0.32848552 0.32155752
000050 cf 42 03 3f e3 a7 f9 3f a2 54 3e be 60 aa 78 bc
       0.51273817 1.950436 -0.18586972 -0.015177339

weight f4 [6, 4]
000000 ce 54 01 3e 72 4c 28 3b 9f 1f 4a 3f f7 04 d0 3e
       0.12630007 0.002568033 0.789545 0.40628788
000010 46 d7 b5 be b3 bb a7 3f 17 0f 78 bf 91 2a 60 3f
       -0.35515803 1.3104156 -0.96898025 0.8756495
000020 d6 af 87 3f ab ba 3d 3f f1 14 7f be 07 7d 9f be
       1.0600536 0.7411296 -0.24910332 -0.31150076
000030 37 d4 f9 3f 29 69 02 40 c0 fe 85 3f 10 4d ae 3e
       1.9517888 2.0376685 1.0468369 0.3404317
000040 dc 19 ac 3e 36 dd 1b be a3 7b ab bf 52 98 c0 bf
       0.3361348 -0.15221104 -1.3397106 -1.5046484
000050 b7 c8 5a 3f db 66 eb be 30 8c 1b be 2d 0e ad bd
       0.85462517 -0.4597691 -0.15190196 -0.084499694

weight f4 [6, 4]
000000 a5 7b 51 bc fd 14 55 bf 1b e2 0e bf 3a 9a 04 40
       -0.012785827 -0.8323515 -0.5581376 2.0719132
000010 17 95 34 3f bb 9c 18 be 82 59 3e bf ec 46 39 3f
       0.70539993 -0.14903538 -0.7435533 0.72373843
000020 a8 aa 04 bf 24 f1 10 bf 0e 04 6b bf 81 40 3d bf
       -0.518229 -0.5661795 -0.9180306 -0.7392655
000030 c4 9d b3 bd 44 5b 8e 3f 25 67 a7 3f 12 6a 95 be
       -0.08770326 1.1121602 1.3078352 -0.29182488
000040 b1 4b 49 bf 2e 67 30 be 5f ca 0a c0 19 7e 39 3f
       -0.7863112 -0.1722686 -2.1686018 0.72458035
000050 d7 e1 86 3e 2c 3d 54 3e df 57 a1 3f fc 9e ad bf
       0.26344177 0.2072646 1.2604941 -1.3564143

weight f4 [6, 4]
000000 b1 6c 0c 3f ac 71 70 bf a6 cd 4f 3e f0 09 af be
       0.5485335 -0.9392345 0.20293292 -0.3418727
000010 08 ae 0a 3f 27 f4 c5 3f 40 a7 1a 3f fa 22 aa be
       0.541718 1.5465134 0.60411453 -0.3322981
000020 b0 83 8a bf 86 ff b2 bf 27 4b b4 be 83 25 c8 3f
       -1.0821438 -1.398423 -0.35213587 1.5636448
000030 ce 00 51 bf 7b ab 09 c0 61 dd b4 3d 01 5a 32 bf
       -0.8164185 -2.1510913 0.08831287 -0.69668585
000040 f7 fa 29 3f aa 44 10 c0 3a 39 80 bf ee d1 b1 bf
       0.66398567 -2.254191 -1.0017464 -1.389219
000050 16 75 c9 3e 28 12 7c 3e 39 b9 05 be c7 7a 45 3f
       0.39347142 0.24616301 -0.13058938 0.7714047

weight f4 [6, 4]
000000 c3 37 1d bd 5c 44 b4 be 06 63 aa be 73 64 ca 3e
       -0.038383257 -0.35208404 -0.33278674 0.39529762
000010 3a c8 34 3f ab b7 f1 3f 44 3f 81 bf f2 77 d3 3e
       0.7061802 1.8884176 -1.0097432 0.4130245
000020 a5 3d 17 3f 17 13 86 3f 8b ab a4 3f a7 e2 ce bf
       0.5907844 1.0474576 1.2864851 -1.6162919
000030 ce 4b 44 bf 39 d8 9c bf 55 4e 13 3f e7 a9 34 3f
       -0.7667817 -1.2253486 0.575414 0.7057175
000040 05 8a 81 3e 5b 8b 89 3e e9 05 c0 bd e2 d9 ce 3f
       0.25300613 0.26864132 -0.09376127 1.6160243
000050 46 b6 ce bd 15 88 af bf ad d1 61 bf b6 27 a6 be
       -0.1009336 -1.3713404 -0.88210565 -0.32452172

weight f4 [6, 4]
000000 df 07 36 3f a2 a9 0d 3d b1 4e 59 bf 9d 42 09 3f
       0.7110576 0.034585603 -0.848857 0.5361727
000010 b0 ea 06 bf 5c 5f aa bf 64 a5 c5 3f e1 9d cd 3e
       -0.52701855 -1.3310351 1.5441098 0.40159515
000020 d1 96 94 3f 83 a0 01 40 74 28 e7 bf 6e 85 0f bf
       1.1608526 2.0254219 -1.805922 -0.5606297
000030 31 be 6e be 81 83 26 3f b0 3b e8 bd b1 3f 2d 3f
       -0.2331474 0.6504441 -0.113395095 0.6767531
000040 a9 08 92 bf f4 45 8b bf 92 ab 0b bf 9c c4 f4 be
       -1.1408893 -1.0880723 -0.5455867 -0.4780625
000050 48 f5 84 3f fd 80 1d bf f9 fe d4 3e 24 0e 71 3f
       1.0387354 -0.61524945 0.4160078 0.941622

weight f4 [6, 4]
000000 99 c2 78 3f cb b0 8b bf 11 82 22 be 29 12 12 40
       0.9717193 -1.0913328 -0.15869929 2.2823584
000010 d3 1f 67 3e f0 fc ff 3c ae c6 be 3e f9 89 7b 3f
       0.22570734 0.03124854 0.37260956 0.98257405
000020 d6 bf 34 3f ac 83 0f bf ca 29 be be a8 3d 2a bd
       0.7060522 -0.5606029 -0.37141258 -0.041562706
000030 23 f6 07 3f a5 4d 45 3f f2 84 85 bf a1 d3 a1 bf
       0.5310995 0.770716 -1.0431197 -1.2642709
000040 02 32 df bd 2e c5 1c bf a5 cc 5a 3f 81 02 21 3e
       -0.1089821 -0.6123837 0.8546851 0.15723611
000050 bf a5 8a 3f 00 2e 89 3f 14 3b 0c 3f e5 f4 40 3f
       1.0831832 1.0717163 0.54777646 0.7537368

weight f4 [6, 4]
000000 33 f7 ac bf 5d 43 42 bf a8 8d 55 be 11 1c 86 be
       -1.3512939 -0.7588404 -0.20854819 -0.26193288
000010 6e 31 45 bf 91 cf b3 3f 17 65 3e c0 58 3c 16 be
       -0.7702855 1.4047719 -2.97492 -0.14671457
000020 8a ab 7e bf ef 93 ca be ed 04 83 3f 79 ef 80 be
       -0.994805 -0.3956599 1.0235878 -0.25182703
000030 70 20 a2 bf 82 47 c7 be 22 4e 6a bf d6 23 2e bf
       -1.2666149 -0.38921744 -0.9152547 -0.6802343
000040 5b 28 a4 be c9 17 75 3f 25 4d 11 3f 87 90 52 bf
       -0.3206204 0.9573942 0.5675834 -0.8225178
000050 e3 0c 05 bf 19 69 90 3f f4 19 cb 3f 52 4f 37 bf
       -0.5197279 1.1282073 1.5867295 -0.7160541

weight f4 [6, 4]
000000 78 0c 82 bf 9e 7a c3 bf da 4a 9c bf 27 90 5e 3f
       -1.0160055 -1.5271795 -1.2210343 0.8693871
000010 9b aa c5 be bc ca cc 3d 3b 57 a3 be 74 47 ed 3f
       -0.38606724 0.09999606 -0.3190249 1.8537431
000020 6f 04 47 40 3b c7 4f bf bb 4b 8e bf 2f 24 39 bf
       3.1096456 -0.81163377 -1.1116861 -0.72320837
000030 31 e7 4b 3f 5d 3f af 3f 1c fc c0 3e c8 f5 80 bf
       0.79649645 1.3691212 0.37692344 -1.0075006
000040 cb 0b 98 3b cd d9 06 be a4 ed cc 3d 84 61 b9 be
       0.0046400777 -0.13169022 0.10006264 -0.3620721
000050 50 62 30 bf 3f f7 cb bd db 96 9b 3f 27 30 35 3e
       -0.6890001 -0.09959268 1.2155412 0.1769415

weight f4 [6, 4]
000000 23 00 4f bf bc 24 8c 3e 66 06 d3 3d ac 59 1f 40
       -0.80859584 0.27371776 0.10303955 2.4898481
000010 73 59 99 bf 63 63 82 3f 68 41 c3 be f4 78 82 bd
       -1.1980423 1.018658 -0.38135839 -0.06370726
000020 28 7d db bf f9 7c 45 bf 50 95 e7 3e 58 8d b6 be
       -1.714757 -0.7714382 0.45231104 -0.35654712
000030 d2 1c 81 3f ec 22 f3 3e 86 de a0 be f1 6a b0 bf
       1.008692 0.4748758 -0.31419772 -1.3782636
000040 04 e8 71 bf ee 9d 3d bf ec a2 33 be f8 bb 49 bf
       -0.9449465 -0.74069107 -0.17542619 -0.7880244
000050 43 b5 c5 3e 69 96 06 3f 10 3b d0 bf 6f b1 19 bf
       0.38614854 0.5257326 -1.6268024 -0.6003637

weight f4 [6, 4]
000000 4b 71 99 3f 84 5f 9b bc 35 2f 93 3e 48 92 e8 3f
       1.1987699 -0.018966444 0.28746954 1.8169641
000010 0c 59 eb 3f 78 8f 1f 3e 92 86 b8 3f e8 b0 24 3e
       1.838655 0.15582073 1.4416068 0.1608311
000020 1c cd 37 3f e6 36 58 3f 73 39 a3 3d 37 bd e1 3b
       0.7179735 0.8445877 0.07969942 0.0068890112
000030 f8 45 b3 bf e1 6b eb 3d dd f6 a6 be b9 21 57 bf
       -1.4005728 0.11495186 -0.32610217 -0.8403583
000040 9a 5a e9 3e cc 8a 1b 3f 4d 0e 56 be 9b 6f 75 be
       0.45576936 0.6075866 -0.20903893 -0.23968355
000050 0f 41 1a bf f3 22 4b 3f 36 6f 0c bf 58 43 ca bd
       -0.6025552 0.79350203 -0.54857194 -0.09876126

weight f4 [6, 4]
000000 fa 82 df be 3a f1 52 3f d3 87 b3 bf af 1a b7 bd
       -0.43654615 0.8239933 -1.4025825 -0.08940636
000010 03 bc 96 3d b5 15 16 3f 15 c8 ca 3e 24 0e 24 bf
       0.07360079 0.5862687 0.39605775 -0.64084077
000020 df 4b 8a bf 68 e2 a8 be 65 c6 8d 3e ad 7d 8a bf
       -1.0804404 -0.32985234 0.27690426 -1.0819603
000030 fa 90 3f bf cc fe 71 bf 0d 14 a1 bf e8 1d de bf
       -0.7483059 -0.94529414 -1.2584244 -1.7352877
000040 36 d3 39 bf 3c 0c 07 3f 22 ed db be 8a 99 3c be
       -0.7258791 0.52753043 -0.42954355 -0.18417946
000050 a1 49 f4 be 83 58 bd 3f 32 ea 70 bb e8 ec 95 3f
       -0.47712424 1.4792637 -0.0036760685 1.1712923

weight f4 [6, 4]
000000 06 64 4c bf 74 f5 9e be 11 aa 81 bf e6 a3 bc be
       -0.79840124 -0.3104664 -1.0130025 -0.36843795
000010 db 40 c2 3c ed f2 7c 3f 21 f5 0e bf 90 83 e9 3d
       0.023712566 0.98808175 -0.5584279 0.11402047
000020 c5 7c 8a bf cd 16 00 be 9a 6f 2e bf 09 8b a7 bf
       -1.0819327 -0.12508698 -0.6813904 -1.3089305
000030 57 da 2a 3f 38 ad b4 bf c9 6a eb 3f 27 0d ed 3e
       0.6673941 -1.4115362 1.8391963 0.46299097
000040 d9 4a 8f 3e a2 aa 4e 3e ba 59 df 3d b4 d8 57 bf
       0.27986792 0.20182279 0.10905786 -0.8431504
000050 35 28 15 3f 76 be a5 3f da 2d 86 3f 3c 77 99 bf
       0.58264476 1.2948749 1.0482743 -1.1989512

weight f4 [6, 4]
000000 57 1f 22 3f 24 9d 81 3f 06 af 4d bf 35 2b fb bd
       0.6332907 1.012608 -0.8034519 -0.122641005
000010 2a 73 2e 3f 03 72 5b 3f bc c1 e5 3f 99 dc c0 bf
       0.68144476 0.85720843 1.7949748 -1.5067321
000020 3a 84 a4 bb 56 6d 86 3e e1 01 8a 3f 09 6d 73 3e
       -0.0050206454 0.26255292 1.0781823 0.23772062
000030 c3 9b c1 3f c0 43 bd bf 8e f4 95 3f 9e 97 86 bf
       1.512566 -1.4786301 1.1715257 -1.051502
000040 ee 23 54 bf 3c 60 12 3f 98 bd 99 bd 95 71 78 3b
       -0.82867324 0.5717809 -0.07506865 0.0037909497
000050 2c 09 3a 3e 96 7b ab 3f 0f 02 3c bf 1c 07 a2 be
       0.18167561 1.339709 -0.7344064 -0.3164605

weight f4 [6, 4]
000000 b7 a7 c0 bf 2e ad 55 3e 51 9a 22 bf ff ce f9 3e
       -1.5051183 0.20866844 -0.6351672 0.48790738
000010 85 86 f5 be 12 75 3b 3f cd b7 03 bf 0c b6 50 bf
       -0.47954193 0.7322551 -0.5145233 -0.8152778
000020 8a 83 56 be 63 c8 4e bf 61 a6 e9 3e 43 12 c7 3e
       -0.20948616 -0.80774516 0.4563475 0.3888112
000030 82 ee a9 bf 68 b1 45 3f c0 f4 39 3f a3 2a 6a bd
       -1.3275912 0.77223825 0.72639084 -0.057169568
000040 8c ba 0f 3f e8 e8 b3 bf 75 8d d0 3d 2a 27 2b 3d
       0.5614402 -1.4055452 0.10183231 0.041785397
000050 e9 c4 0a bf b0 a8 64 3f 3a ca 8d 3e 6c 69 1f 3e
       -0.5420671 0.89319897 0.2769335 0.15567559

weight f4 [6, 4]
000000 10 4b af be 8b 6e 66 3e a8 c0 e2 3e d0 67 8d 3e
       -0.34236956 0.22503106 0.4428761 0.27618265
000010 42 38 4b be d3 b9 82 3f 7b 15 d0 be c5 27 fb bc
       -0.1984568 1.0212959 -0.40641388 -0.030658612
000020 0c 43 b9 3f dc fa 4c be b8 d8 8c 3f f6 e2 e5 3e
       1.4473586 -0.2001757 1.1003637 0.4489972
000030 dd 32 96 be c8 43 b5 3e d5 4b ca bf ca ad 8a bd
       -0.2933568 0.35403275 -1.5804392 -0.06771429
000040 2e ae 48 3f 96 aa b9 bb f0 92 59 bf ca 70 57 3e
       0.7839078 -0.0056660874 -0.84989834 0.2103912
000050 1b b7 ce 3f 60 46 fd bd 43 d1 63 3f b2 50 4f be
       1.6149629 -0.123669386 0.88991183 -0.20245627

weight f4 [6, 4]
000000 51 b8 69 bd ad 1b 56 3e 26 02 bd be 59 77 e3 3f
       -0.057060543 0.20908995 -0.36915702 1.7770797
000010 6d c4 7a 3f fa 76 ab 3e 33 86 3d bf 47 34 94 bf
       0.9795597 0.3348921 -0.74032897 -1.1578454
000020 09 ee 02 be 49 81 c4 3e 3d d9 81 bf e4 0c 8b 3f
       -0.12786116 0.38379887 -1.0144421 1.0863309
000030 32 64 94 3f 1b b9 36 be 04 af 6c 3d 1b 4e a4 bf
       1.1593077 -0.1784405 0.057784095 -1.2836336
000040 ea 34 20 bf a3 a4 73 be 8b a6 d0 3d 7e 82 e6 3f
       -0.6258074 -0.23793273 0.101880156 1.8008573
000050 13 8c 02 c0 b4 a0 99 3e 9e e2 8e bf 21 09 9c 3f
       -2.0397995 0.3000542 -1.1162908 1.2190286

weight f4 [6, 4]
000000 b0 15 c2 bf da dd 99 3f c4 21 e9 be 9f 31 30 3d
       -1.5162868 1.2020829 -0.45533574 0.043016072
000010 ab 9d 32 be c5 3a 44 3f 1a c3 1d 3f 33 9d 32 40
       -0.17442958 0.76652175 0.61625826 2.7908447
000020 48 49 b7 be bf 2e 87 bf aa 4a 41 bc 63 c0 a5 3f
       -0.35798097 -1.0561141 -0.011797586 1.2949337
000030 41 53 10 bf 29 ca 00 bf bb b1 61 3f 7d df 34 40
       -0.56377035 -0.5030847 0.8816182 2.8261406
000040 9e 60 83 3f 1d 67 a4 3f dd 67 17 bf 37 38 87 3f
       1.026386 1.2843968 -0.5914286 1.056403
000050 ee 7d d0 bf ae 83 d7 be 77 bd fd bf da dd 9a 3f
       -1.6288431 -0.4209265 -1.9823445 1.2098954

weight f4 [6, 4]
000000 fc d8 b2 3e 06 bc a7 bf ad be b7 3e a7 f3 86 3e
       0.3493117 -1.3104255 0.35887662 0.26357767
000010 07 85 c5 bd 0e bc 8d 3e 96 ba 41 3c e6 6b 94 be
       -0.096445136 0.27682537 0.011824271 -0.2898857
000020 a9 a8 b8 3f e7 6f 4e 3e 56 23 8c bf e8 23 02 c0
       1.4426471 0.20159875 -1.0948284 -2.0334415
000030 0d bb 08 40 0b 41 44 be 4f 04 f1 3e 1d 3f 9a 3f
       2.1364167 -0.19165437 0.470736 1.2050511
000040 8d 0a 9f 3e 74 61 ca 3f 35 7d 61 3f 94 b5 2f 40
       0.31062737 1.581099 0.88081676 2.7454576
000050 06 e8 fe be 83 25 11 c0 53 51 71 bf 5c 7d ef bf
       -0.49786395 -2.2679145 -0.94264716 -1.8710132

weight f4 [6, 4]
000000 5d 02 b8 be 2f fa 1e 3f f6 ae 30 3f d2 cc 3c 3f
       -0.35939303 0.621005 0.6901697 0.7375003
000010 71 77 70 bf c5 87 2e bf 59 e6 1f 3f bb b6 f7 3f
       -0.93932253 -0.6817592 0.6246086 1.935264
000020 eb 4c f3 bf 2b 79 86 3f 7f 6a e3 be b7 d9 65 3e
       -1.9007849 1.0505728 -0.44417188 0.22446333
000030 92 dd a5 3e a7 fa 3a 3f b6 d5 fd 3f 24 0c 3e bf
       0.32395607 0.73038715 1.9830844 -0.74237275
000040 f0 40 79 3e 18 0c 9b 3f 23 87 28 bf f0 34 03 bf
       0.24341178 1.2113066 -0.658312 -0.5125265
000050 4b 40 80 3b 88 6e 74 3f c6 66 05 c0 63 dc 2a bf
       0.0039139143 0.9548116 -2.0843978 -0.66742533

weight f4 [6, 4]
000000 b8 d8 46 bf 8a 4d 47 3e ef 81 23 bf 99 88 03 3f
       -0.77674437 0.19463173 -0.6387014 0.51380306
000010 fc df 37 3e bb 7a 07 bf f9 2a 11 3c 12 63 d8 be
       0.17956537 -0.52921647 0.008860343 -0.42263085
000020 78 0f 53 3f 96 20 70 3f 24 a1 0d c0 5d 8a d6 3e
       0.8244548 0.9379972 -2.2129602 0.41902438
000030 f2 d4 83 be 42 d5 ad bf 3d 76 9c be 2b 25 0d c0
       -0.25748402 -1.3580706 -0.3055896 -2.2053936
000040 d3 18 9e be a6 e0 4e be fd 37 2c 3f 12 df 06 be
       -0.30878314 -0.20202884 0.6727293 -0.13171032
000050 9d 83 98 3f 2c dd 1d 40 a3 02 39 bf 06 b6 d8 bf
       1.1915165 2.4666243 -0.7226965 -1.6930549

weight f4 [6, 4]
000000 45 51 af 3f b4 b3 0c 40 17 26 0a 3e db f0 37 3f
       1.3696676 2.1984682 0.13491093 0.7185189
000010 11 27 bb 3f 1a 7b b9 bf a1 53 d1 bf 36 98 3e bf
       1.4621297 -1.4490693 -1.6353647 -0.74451005
000020 50 30 04 3f 3f 53 08 40 b4 15 6a 3f fc 09 d0 3e
       0.5163622 2.130081 0.91439366 0.40632617
000030 60 f4 c7 be ca 43 09 bf d1 4b 70 bb 7d 0b 23 c0
       -0.3905363 -0.5361906 -0.0036666284 -2.5475762
000040 d3 7b 13 c0 ae 1a 5f bf d8 f7 35 bf d5 66 4c 3f
       -2.3044326 -0.87150085 -0.71081305 0.7984441
000050 ed af fd be fd d7 f0 3f 66 5f 8c bf bd fd 37 3f
       -0.49548283 1.8815914 -1.0966613 0.7187155

weight f4 [6, 4]
000000 34 b8 0c bf 94 25 c6 3d f8 e4 85 be 33 88 93 bf
       -0.5496857 0.09675136 -0.26151252 -1.152594
000010 cc b6 50 3f 02 25 93 3f 59 5e e0 3f e3 54 53 bf
       0.81528926 1.1495669 1.7528793 -0.825514
000020 c7 1b 45 3d 13 24 bd be ba a8 83 3e 32 77 1e 3e
       0.048122194 -0.36941585 0.25714666 0.15475157
000030 3d e0 3f bf cf 78 91 3e de de dc 3e 23 49 9a 3f
       -0.74951535 0.28412482 0.43138784 1.205357
000040 d2 77 b3 bd b9 6a 9a 3f 08 7e f2 3f 3e 10 c6 3f
       -0.08763088 1.2063819 1.8944712 1.5473707
000050 73 73 40 3e bd 8f e5 3c 78 d5 10 3e 9d 93 23 bd
       0.1879404 0.028022641 0.14143932 -0.039935697

weight f4 [6, 4]
000000 5a 4f 45 bf c9 c2 82 3f 0d 23 20 3f 55 14 9d 3e
       -0.77074206 1.0215694 0.62553483 0.30679575
000010 73 83 0e 3f 67 35 3f bf 2b e5 88 3d 94 d5 8f 3f
       0.55669326 -0.7469086 0.06684335 1.1237054
000020 8e 60 85 3f 90 3d c1 3e 0c 05 d2 3d f7 10 c4 3f
       1.0420091 0.3774228 0.10254869 1.5317677
000030 91 ee 20 40 1b 55 2c bd 7e 14 8b 3f ec 17 2e bf
       2.514561 -0.04207335 1.0865629 -0.6800525
000040 e4 f7 19 bb 22 36 e4 bd d5 3b e2 3f f9 7b 47 3f
       -0.0023493702 -0.111431375 1.7674509 0.7792354
000050 24 8c 47 3f 65 d0 5f 3f ef 22 10 bf 7c 68 93 bf
       0.7794821 0.8742736 -0.56303304 -1.1516261

weight f4 [6, 4]
000000 98 e2 0e 40 cb 92 f7 bf d9 96 16 3f 9c 52 2c be
       2.2325802 -1.9341673 0.58823925 -0.16828388
000010 ad 1c 97 3e f2 ec fd 3f be 6a 89 3e 86 cc 61 3e
       0.29514065 1.9837935 0.2683925 0.22050676
000020 c5 6c 50 3e c9 ba 78 3f 61 03 06 bf 4d ae d6 3f
       0.20353992 0.9716001 -0.52348906 1.6771942
000030 16 bf 59 bf b5 2e 04 c0 1d 4a ae bf 85 48 16 bd
       -0.850572 -2.0653508 -1.3616368 -0.036690254
000040 09 0d 50 3f a7 78 85 3e 44 fc 2e 3f d6 5d ce 3e
       0.8126989 0.26068613 0.68353677 0.40305966
000050 9d a6 09 3f 84 49 ae bd 28 d1 82 3e fa 38 83 3f
       0.53769857 -0.08510116 0.255502 1.0251763

weight f4 [6, 4]
000000 3b 65 ec bf eb 20 3e bf cb 62 60 3f c4 c8 43 bf
       -1.8468393 -0.7426898 0.87650746 -0.7647822
000010 dd 5f d1 3f 79 d3 15 c0 48 02 8d be a5 6f 80 3e
       1.635738 -2.3410323 -0.27540803 0.25085178
000020 ac 19 84 3f 34 c8 83 bf 73 df 91 bf 53 32 be be
       1.0320334 -1.0295472 -1.1396316 -0.3714777
000030 7e f3 1c 3e f6 d5 ab 3f 02 7d 10 3f 92 27 9d 3f
       0.1532726 1.3424671 0.56440747 1.2277701
000040 eb 04 3e bd 2e 1b ef bf 2d 1c b2 3e 21 78 c0 be
       -0.04639141 -1.868017 0.3478712 -0.3759165
000050 23 1b 2c 3f 6b af 35 3f 73 4c 0d 3f 4a b9 26 3f
       0.6722891 0.7097079 0.5519478 0.6512648

weight f4 [6, 4]
000000 74 50 89 3e c0 cb ac be 5d b3 4e 3f 79 21 19 3d
       0.26819193 -0.337492 0.80742437 0.037385438
000010 eb 23 9a 3f c6 6a 0c 3d fb 54 8a be ba 6a 84 be
       1.2042211 0.034281515 -0.2701796 -0.25862676
000020 d9 42 f4 be 4e 4a 84 bf 58 3b d8 3e 66 84 c5 bf
       -0.4770725 -1.0335176 0.42232776 -1.543103
000030 87 29 c1 3f ec 29 81 bf 47 1f a9 ba 17 40 4c bf
       1.5090798 -1.0090919 -0.0012902998 -0.79785293
000040 c9 73 b8 3f f8 6c 7c 3e 58 76 08 bc cf 2f 50 bc
       1.4410335 0.24650943 -0.008328997 -0.012706711
000050 85 35 8c 3f 66 90 59 3e 93 e0 cd bf 4e 80 a3 3f
       1.0953833 0.2124649 -1.608416 1.277353

weight f4 [6, 4]
000000 dc 8a 76 3e c8 86 eb bf 3c 1d d8 bf 90 ba 81 bf
       0.24076408 -1.8400507 -1.6883922 -1.0135059
000010 5c 52 e3 be b9 86 3f bf e4 04 92 3f 65 50 36 bf
       -0.44398773 -0.74814945 1.1407743 -0.7121642
000020 21 ad a1 3f c4 e0 dd bf a2 22 64 3f b7 c9 95 3f
       1.263096 -1.7334218 0.89115345 1.1702183
000030 1f 80 a4 3e 83 34 d0 3f 2a f6 3c 3f 1c 56 6c bf
       0.32129 1.6266025 0.73813117 -0.9231889
000040 47 42 cb bf ad 7d 2e ba f3 a5 dc 3f 96 b1 7d 3f
       -1.5879601 -0.00066563004 1.7238144 0.990991
000050 09 6e d8 bf 82 2c 72 bf ed b2 1c bf d0 25 03 bf
       -1.690858 -0.94599164 -0.6121052 -0.5122957

weight f4 [6, 4]
000000 f7 ec 3d bf bc c1 03 3e 57 68 4a be f8 0a 28 be
       -0.74189705 0.12866873 -0.19766365 -0.16410434
000010 69 06 ad 3f d8 83 12 3f 54 28 bb bd 39 64 8b 3f
       1.3517581 0.5723243 -0.09138551 1.088996
000020 b9 35 82 3e f2 6c d1 bf 98 b7 e1 be 28 2e 06 c0
       0.25431612 -1.6361372 -0.44085383 -2.0965672
000030 01 77 fb 3f 7d 19 f7 be df de c2 3f 34 87 db bd
       1.9645692 -0.48261634 1.5224265 -0.10719147
000040 fa 72 5f 3f 03 97 58 3d 1d ef fa be 43 ed e6 3f
       0.87284815 0.05287839 -0.49010554 1.8041157
000050 84 03 6d be 3d e6 9d 3f fe 5d 01 3f dd 34 bc 3f
       -0.23145872 1.2335888 0.50534046 1.4703633

weight f4 [6, 4]
000000 bd 1e 43 3e f7 ac 46 be b2 3b 07 3f 3e 62 12 bf
       0.19054694 -0.19401918 0.5282546 -0.57181156
000010 23 56 45 be ac 7f e2 3d f3 dc 10 3f 76 1d d5 3f
       -0.1927114 0.11059508 0.5658714 1.6649616
000020 02 22 b0 be a6 04 b1 bd 99 b8 97 3e 0c 4d ea be
       -0.34400946 -0.08643465 0.29633024 -0.45761907
000030 da 06 62 3f 46 b2 1e bf 3a 92 d6 3f 76 80 92 3f
       0.88291705 -0.61990774 1.6763375 1.1445453
000040 ab 96 4f 3f 9b 7f ed 3e 68 ed c4 bf 46 07 98 be
       0.81089276 0.46386418 -1.5384951 -0.2969305
000050 90 d0 e8 be 6c b8 ba bf f8 46 93 bf 03 52 44 3f
       -0.4547162 -1.4587531 -1.1506033 0.7668764

weight f4 [6, 4]
000000 69 04 9b bf 38 c2 27 3f f3 ef 58 bf 36 e4 81 3f
       -1.2110721 0.6553073 -0.84741133 1.014777
000010 4a 69 06 3f ed 29 9d 3f 39 59 9f 3e 08 5f 23 bf
       0.5250441 1.227842 0.3112276 -0.6381688
000020 d0 35 24 3f d8 29 9a 3e 79 75 9b bf cd d5 eb be
       0.6414461 0.3011005 -1.2145225 -0.46061555
000030 72 cc 75 3c ed 40 22 bf e2 af e9 be b5 59 bb 3e
       0.015002357 -0.6338032 -0.45642 0.3659188
000040 36 42 35 bf d0 b9 6c 3f 9a e1 1a 3e 1a 49 1c 3f
       -0.70804155 0.9247103 0.15125123 0.61049044
000050 5f d4 78 3e ab d1 bc 3e 23 cf 5f 3f c1 ec fe bf
       0.24299763 0.36878714 0.8742544 -1.9916002

weight f4 [6, 4]
000000 8f 18 b6 be cd c1 f3 3c 21 68 50 3e d4 03 d2 be
       -0.35565612 0.029755497 0.20352222 -0.41018546
000010 51 a0 96 bf 0f d0 20 be 7e ac 5f bf d4 ad 1b 40
       -1.1767675 -0.15704368 -0.8737258 2.4324846
000020 b2 2f b4 3f 3f ee 2c 3d 90 51 98 be 01 e3 8b be
       1.4077055 0.042219397 -0.29749727 -0.27321628
000030 0e 47 78 3b 76 45 be bd a1 9d 12 bf 39 5a 09 c0
       0.0037884149 -0.09290592 -0.5727177 -2.1461318
000040 21 e1 85 bf cb 9d 2f bf 0e 49 6c bf fa a9 98 3e
       -1.0459329 -0.6860015 -0.9229897 0.29817182
000050 7e 43 33 be 93 3e db bf 5d 26 89 bf b8 56 30 3e
       -0.17506215 -1.7128471 -1.0714833 0.1722058

weight f4 [6, 4]
000000 bf eb ce bd 63 68 6c 3f 81 91 a2 3e 8f 85 67 3d
       -0.10103559 0.9234678 0.31751636 0.056523856
000010 8d 66 b2 3b 14 5e 7d 3f c1 8f f4 be 3c cd 0a 3e
       0.005444354 0.98971677 -0.47765926 0.13554853
000020 72 88 22 3d 76 22 61 bf 26 1f 7c bf 1a 15 d8 3f
       0.039680906 -0.8794321 -0.9848503 1.688144
000030 8c a0 67 3e d4 be c8 3f 3f 82 5b be ff a6 23 3e
       0.22619838 1.5683236 -0.21436404 0.15981673
000040 c3 5e b9 3d 4e b7 c4 3e 74 f9 97 bf 07 d3 ca 3f
       0.090512775 0.384211 -1.1873002 1.584565
000050 62 00 3f be 76 ef ec be 51 7b d8 bc 10 40 c3 bd
       -0.1865249 -0.46276444 -0.02642599 -0.09533703

weight f4 [6, 4]
000000 6e e3 4b 3f 4a 98 7c be 09 23 f0 be 0f 8a c3 be
       0.79643905 -0.24667469 -0.4690173 -0.38191268
000010 b4 94 5b bc 8d 06 e4 be be b4 87 3f 9b 15 75 3e
       -0.013402153 -0.44536248 1.0602033 0.23934023
000020 45 23 d0 be 98 8f bb be de e5 48 bf 84 50 c0 3e
       -0.4065191 -0.3663299 -0.7847575 0.3756143
000030 af d9 ca bf 8f 2f 92 3f c4 bd b2 bf 3c 06 a1 be
       -1.5847682 1.1420764 -1.3964162 -0.3145007
000040 bf 4d 2e 3f 20 5f 22 bf 34 c7 70 bf 2a 90 b3 3f
       0.6808738 -0.634264 -0.9405396 1.402837
000050 cb e8 f3 be ac 08 86 3f 2f 9a e5 3f 86 42 64 3f
       -0.47638544 1.0471396 1.7937678 0.89164007

weight f4 [6, 4]
000000 10 5a 82 3f 2a 7f b8 3c 46 b9 1c bf 8a d9 0e 3e
       1.0183735 0.022521574 -0.61220205 0.13950172
000010 08 2c b0 3f 06 d1 f2 be 34 3e bb 3f 2f ff 92 be
       1.3763437 -0.47425097 1.4628358 -0.28710315
000020 bf 4d 83 3f cd 20 c0 3d ac c2 fb be a2 71 89 3f
       1.0258101 0.09381256 -0.4917196 1.0737803
000030 86 f3 76 be e7 00 99 bf e7 62 a8 be 0e 79 8f 3e
       -0.24116334 -1.19534 -0.32887957 0.28022045
000040 5e b5 47 bf 6a d3 3d 3f 8e 87 7e bf e7 80 d1 bc
       -0.7801112 0.7415072 -0.9942559 -0.02557416
000050 2a 6e 95 bc b7 47 bd bf f6 b9 81 bf a2 d9 73 be
       -0.018241007 -1.4787511 -1.0134876 -0.23813489

weight f4 [6, 4]
000000 f5 d4 6b bf a8 d3 33 bf 20 3e 8c 3f 2b db f8 3f
       -0.9212182 -0.70244837 1.0956459 1.9441885
000010 05 08 9b bf 68 1c 20 bd db 94 1a 3f 1f 62 b8 bf
       -1.2111822 -0.03908959 0.60383385 -1.4404944
000020 5a fb 76 3f f4 6b 5f bf e3 7c e9 be f5 24 87 3f
       0.9647728 -0.872741 -0.45603094 1.0558153
000030 b2 c0 d4 3f 52 a7 cb be 88 d0 e5 be e1 b5 2f 3f
       1.6621306 -0.39776093 -0.4488566 0.686369
000040 36 c7 d5 be 56 c3 a2 3f 37 04 a7 3f 5b e0 16 40
       -0.41753548 1.2715862 1.3048161 2.3574436
000050 d4 58 e4 bf 28 f8 ef 3e 9d ec 87 3f 5c f8 8c bf
       -1.7839608 0.46869016 1.0619084 -1.1013293

weight f4 [128, 196]
000000 9e 5d 82 3d 2d bc 05 bb 5b d8 64 bd 45 3c 72 3d
       0.06365512 -0.002040635 -0.055870395 0.05913951
000010 13 cb a6 bc ba 5a ce bc 24 62 5a bd f0 7c 0c bd
       -0.020360505 -0.025189746 -0.05331625 -0.034298837
000020 05 74 8a bd 88 0d 43 bd bf 27 92 bd be 50 d1 bc
       -0.0676041 -0.047620326 -0.07136487 -0.025551196
000030 ae 17 08 3d cc 4e 45 bd d4 81 e4 bb b3 2b bb bc
       0.033225708 -0.04817085 -0.0069734845 -0.022847986
000040 f0 8f f4 3c 13 cc 87 3d 06 01 37 bc fa 00 2a bd
       0.029853791 0.06630721 -0.011169678 -0.041504838
000050 ed c2 45 bd bf 00 1e bd 55 a2 be 3c 80 de 85 3c
       -0.0482816 -0.03857493 0.023270765 0.016341448
000060 56 96 3b 3d f3 68 bd 3a 80 2c c8 3c 1f d4 91 bd
       0.04579767 0.0014450833 0.024435282 -0.07120537
000070 e9 58 c2 3c 0b cd 8c 3d 32 d9 8d bd bc 6d 2b bd
       0.023724036 0.06875046 -0.06926192 -0.041852698
000080 9b cf 49 3d 24 36 eb bb 67 53 06 bd 0a a2 24 3d
       0.049270254 -0.007178085 -0.032794382 0.040193595
000090 80 f1 57 3b 19 c8 6f bb 09 8b ca bc 69 db 5b 3d
       0.0032950342 -0.0036587773 -0.0247245 0.053676043
0000a0 cf 61 29 3d 7e ab a4 3c 06 8a c8 3b ff cf 44 3d
       0.041353043 0.020101305 0.0061199693 0.048049923
0000b0 0c 13 56 3d d5 1b b0 bc a2 3e d6 ba 54 65 e6 3c
       0.05226426 -0.021497646 -0.001634557 0.028124489
0000c0 27 4a 0b bd 07 21 78 3d ed 40 48 bd ec 40 0e 3d
       -0.034006264 0.060578372 -0.048890043 0.034729883
0000d0 d4 fb 67 bd 22 7c 6f 3c 66 6a 31 3d d1 c4 49 3c
       -0.056636646 0.014616998 0.04331436 0.012314991
0000e0 7e d4 d4 bb bc 4c 4b 3d df e2 3d bd 5e 33 2b bd
       -0.0064950576 0.049633726 -0.04635894 -0.041797034
0000f0 de 14 69 bd b7 f2 0b bd 27 5e 05 3c 77 01 15 bd
       -0.056904666 -0.034167018 0.008140123 -0.03637835
000100 fd bc ff 3b f6 29 bd ba 3a b5 77 3d bd bc 0a bd
       0.0078045116 -0.0014432061 0.060475565 -0.0338714
000110 5f 5d a1 bc 97 76 43 3d 27 f0 6d bc 12 44 84 3d
       -0.019697843 0.047720518 -0.014522589 0.06458296
000120 d5 6d f9 bc 20 40 aa 3a 43 9c 36 bc 03 f2 1c 3d
       -0.03044788 0.0012989081 -0.011145654 0.038316738
000130 04 94 ce 3c af 47 12 bd bf a7 41 3d e6 31 e5 bb
       0.025217064 -0.035712894 0.047279116 -0.0069944737
000140 30 64 97 bc 60 11 e6 bb de 66 2e 3d 50 80 8f 3d
       -0.01848039 -0.007021114 0.04257857 0.070068955
000150 eb 0b e6 3c 60 3e a0 3c ba 9b 5c 3d f5 69 ff bc
       0.028081855 0.019560993 0.05385945 -0.031178454
000160 46 50 f5 bc 04 d5 6d bc 26 ab 59 bd e4 f3 b4 3c
       -0.029945504 -0.014516119 -0.053141735 0.022088952
000170 c0 9e 37 ba a1 0b 01 bd c5 4e 3d bc 2f a7 e2 bb
       -0.00070045516 -0.03150523 -0.011554425 -0.0069169025
000180 07 a4 86 3d 6b 84 6d 3d f0 e2 5f bd b1 89 bf 3c
       0.065742545 0.05798761 -0.054659784 0.023381086
000190 6e ea 14 3d 8a 5d dd 3c 90 60 74 ba b4 ff eb 3c
       0.036356382 0.027022142 -0.000932225 0.028808452
0001a0 6e 87 b5 3c ec b3 7b 3d 34 c8 82 bd 46 33 e9 bc
       0.022159304 0.061450884 -0.06385842 -0.028466832
0001b0 9a 52 4b bd e6 ca fe bc af e1 ca 3c 54 f1 2a 3d
       -0.049639322 -0.031102609 0.024765817 0.041734055
0001c0 2a 02 56 bd 8f e8 25 3d b0 41 46 3d 07 15 1d bd
       -0.052248158 0.04050499 0.04840249 -0.03835013
0001d0 39 6f aa 3c 58 09 32 bd 4a d4 b5 3c d6 ce 2b bd
       0.020804988 -0.043465942 0.022195954 -0.0419453
0001e0 1d 3e d5 bc 90 88 59 bd 75 25 5e bd e9 8e 65 3d
       -0.026030594 -0.05310875 -0.05423494 0.056044493
0001f0 d7 3d 8f ba cf c8 69 bb 39 52 0a bd 77 e6 54 3d
       -0.0010928464 -0.003567267 -0.03376982 0.0519776
000200 34 22 06 bd 07 fb 08 bd 70 3c 4b bd ae 0d 82 bd
       -0.032747462 -0.033442523 -0.049618185 -0.063502654
000210 dd 89 85 3d c2 5d 76 bd dd a8 41 bc 0a 74 ed bc
       0.06520436 -0.06014801 -0.011820045 -0.028985996
000220 3c a5 c8 3c 16 0c 6b 3c 68 d3 6d bd d7 8e 6e 3d
       0.024492852 0.014346143 -0.05806294 0.05824169
000230 1b eb 9a bd be a6 be 3b b1 91 03 bc d7 a3 50 bc
       -0.07564374 0.005818217 -0.008030341 -0.012734375
000240 a6 7c 6d 3d 59 34 51 3d ac 1d 3a 3c 09 f5 11 bd
       0.057980202 0.051075313 0.011359613 -0.035634074
000250 a7 de 3f 3d b2 c4 3e 3d 80 7a 26 3c ff 95 c1 bc
       0.046843197 0.046574302 0.010161042 -0.023631094
000260 5e 26 b7 3b f0 4f 94 3d 16 2a ac 3b fd fb eb bb
       0.0055892905 0.07241809 0.0052540405 -0.00720167
000270 1d db 4b bd 33 55 19 bd d0 68 34 3d 9e 19 20 3b
       -0.04976951 -0.037434768 0.04404527 0.0024429332
000280 f2 d0 07 bc e4 a5 22 3d df 81 2c bd 83 b3 9f bb
       -0.008289563 0.039708987 -0.042116042 -0.0048736944
000290 48 a1 69 bc 1a 84 08 3d d1 b5 8d 3d d8 27 2a 3d
       -0.014259644 0.033329107 0.06919444 0.041541904
0002a0 c6 9c 69 3d b1 d7 89 bd ca 93 b7 bc 6f 79 48 3c
       0.057034276 -0.06730593 -0.022409339 0.012235983
0002b0 19 33 6a bd ea ad 52 3c de 96 3a bd e7 80 ec 3c
       -0.057177637 0.012858847 -0.045554034 0.02887006
0002c0 25 c7 4f 3d c5 77 74 bd 9b 76 73 3d 12 fb f5 3c
       0.05072703 -0.059684534 0.059439283 0.030026946
0002d0 43 ce 32 bd 7a c9 92 3d 26 32 5c bd 37 12 64 bd
       -0.043653738 0.07167335 -0.053758763 -0.055681434
0002e0 fb ae 43 bd 2e 1f 19 3c c6 f1 bd 3b 98 6c e7 bc
       -0.047774296 0.009345813 0.005796644 -0.028250024
0002f0 ac 7a 99 bd 41 48 b5 bc fd 1e 5a 3d 0f 21 5d 3d
       -0.07494101 -0.02212918 0.05325221 0.053986605
000300 2b e1 3b 3d ef 8e 00 3c ca 87 51 3c 24 16 58 bd
       0.045869034 0.007846578 0.012788722 -0.05275549
000310 ca 5e 00 3d 7f 86 87 bd 04 68 01 bd 86 e9 71 bc
       0.031340398 -0.0661745 -0.031593338 -0.014765149
000320 ee 85 4d 3d 76 87 0b 3b 2c 18 34 bd d6 f1 66 3b
       0.050176553 0.0021290458 -0.043968365 0.003523936
000330 68 c4 77 bd 14 91 ca bc 0d 9b a0 3c 99 0f 0e bc
       -0.060490042 -0.024727382 0.019605184 -0.008670711
000340 7f d9 90 bb 03 ed 40 3d dd 37 4d bd 1a b4 fd bc
       -0.004420459 0.047101032 -0.050102104 -0.030969668
000350 a4 e7 7d 3d c1 dc b1 3c 8b 22 8d bc 4f 42 09 3d
       0.061988488 0.021711709 -0.017228385 0.033510502
000360 8b 1a 4c 3d e4 50 07 bc b4 8a c9 bc 71 7d 29 bc
       0.04983 -0.008259032 -0.024602272 -0.010344849
000370 4b 6f d7 3c 97 a4 fc ba 7d 52 0c 3d 12 4a 80 bd
       0.026298186 -0.0019275126 0.034258354 -0.06264128
000380 61 22 f2 bc 34 43 68 3d 33 35 7a 3c e1 d5 30 3c
       -0.029557409 0.056704715 0.015271473 0.01079318
000390 1f 86 da 3c 65 eb 80 bc 7d 6e bb bc a1 3e 98 3c
       0.026675282 -0.015737245 -0.022879833 0.018584551
0003a0 c7 ff b1 bc 65 71 f5 bc e4 e0 9c 3b 46 3e 35 3c
       -0.02172841 -0.029961297 0.0047875512 0.01106221
0003b0 4a d1 c7 bb b2 db 44 bd 6c ee 81 bc 25 e5 20 bd
       -0.0060979472 -0.04806108 -0.015860759 -0.03928103
0003c0 05 a6 2f 3d 46 d9 46 bd 2f 23 6d 3d d1 56 b3 3c
       0.042882938 -0.04854705 0.05789488 0.021891983
0003d0 0a 9a 71 bd 1f bd 46 3d 39 f8 82 bd 96 1c ce b9
       -0.058984794 0.048520204 -0.06395001 -0.0003931268
0003e0 e3 a9 48 bd 0a 2a 86 bd 4c 57 d7 38 31 2e da bc
       -0.04899014 -0.06550987 0.00010268259 -0.026633354
0003f0 c9 3f 4d 3d dd c8 76 bd d9 9f 88 3d 85 3e 3b 3d
       0.05010966 -0.060250152 0.066711135 0.04571392

bias f4 [128]
000000 e2 c3 73 3d 1c 24 74 bd 43 77 16 3d 67 3a 5b 3d
       0.05951298 -0.05960475 0.03673483 0.053522494
000010 a6 c5 37 3d 1d 2e 83 3d 21 0a 42 bd a0 9e a8 3d
       0.044866227 0.0640528 -0.04737294 0.0823338
000020 c3 2b 3a bd ac ce b1 bc c8 ee e6 3c 5c 04 46 bd
       -0.04545189 -0.021704994 0.028190032 -0.048344
000030 fc b5 d0 bb 72 fc 6e 3d bb df 02 3b 63 c7 1b bd
       -0.0063693505 0.05834622 0.001996978 -0.038031947
000040 bc d0 d7 bc 9c 22 89 3c 9c 2e 10 bc c6 14 d9 bc
       -0.02634465 0.016740136 -0.008800175 -0.026499163
000050 30 05 f0 3c 12 f0 af 3c de e2 40 3d b9 71 76 3b
       0.029299349 0.02147678 0.047091357 0.0037604405
000060 6a 5c 2f 3d 02 f4 81 bc eb 2b 29 3d d6 5d a5 ba
       0.042812742 -0.015863422 0.04130165 -0.0012616466
000070 da 43 84 3d d8 ec 06 bc 25 50 81 bd 0a 11 88 b9
       0.06458254 -0.008235179 -0.063141145 -0.00025952636
000080 89 e2 0c 3d 6d 2d 8d 3d 31 11 7b bd 85 af 5b 3c
       0.03439573 0.0689343 -0.061295692 0.013408546
000090 10 ef 5e 3d e0 10 65 bc 3d b1 4d bc a9 d6 a1 3c
       0.054427207 -0.013981074 -0.012554464 0.019755678
0000a0 50 33 63 3d 5a cc 4c 3d 7b f9 61 3d dd d4 5a ba
       0.055468857 0.049999572 0.055169564 -0.0008347759
0000b0 c8 29 3f 3d 0f af df bc 5d 65 06 bd 55 80 6f 3d
       0.046670705 -0.027305154 -0.03281151 0.058471996
0000c0 7d 8a 44 bd 6b 2a 92 3d cd 72 96 3c 80 42 89 3c
       -0.047983635 0.07136997 0.018365288 0.016755342
0000d0 1c 9b 96 bc 0f 3e e1 bc 8a 36 2a bc 9c 69 60 3d
       -0.018384509 -0.027495412 -0.01038898 0.054788217
0000e0 e2 62 44 bd a0 a7 ed bc 0c 82 81 bd 4a 4a 78 3c
       -0.047945864 -0.029010594 -0.063236326 0.015154431
0000f0 b7 5e f9 3c 13 c6 b9 bb 16 c8 89 3d 9d 5a ce 3c
       0.030440671 -0.0056693642 0.067276165 0.025189692
000100 78 84 f3 bb dc 43 f4 bc 6b bb 7d bb 96 16 f1 3c
       -0.007431563 -0.029817514 -0.0038716446 0.029429715
000110 48 da 93 3c a2 ac 7c bd d3 36 5d bd 1c 02 4e 3d
       0.01804842 -0.061688073 -0.054007363 0.05029498
000120 41 ac 83 bc cc 29 59 bd 06 35 04 bb fb 56 0a 3d
       -0.016073348 -0.053018376 -0.0020173206 0.033774357
000130 3b 1c 86 bd aa 5a 58 bb 6c ac 92 bd 4b e9 94 3c
       -0.06548353 -0.0033013024 -0.07161793 0.018177649
000140 19 c7 81 3d 90 6a 3f ba 45 c3 77 bd 60 8e 0c 3d
       0.06336803 -0.0007301951 -0.060488958 0.034315467
000150 62 d1 5c bd 76 3e b8 3b 5e 27 6c bc a5 cd 0e 3d
       -0.05391062 0.0056226803 -0.014413683 0.034864087
000160 76 85 3f 3d 2b 96 65 bc 7b 07 5e 3d b9 af 3f 3c
       0.046758138 -0.014012854 0.054206353 0.01169961
000170 b7 06 3a 3d ac a0 39 bd 6c 3b 14 3d 33 16 15 3d
       0.04541656 -0.045319244 0.03618948 0.036398124
000180 88 18 8b bd bb 3c 2f bd 14 25 81 3d cc 9d 14 3d
       -0.06791788 -0.042782526 0.063059 0.0362833
000190 6c 1b 38 bd 51 c6 4d 3d 19 49 67 bd 9c a4 29 3c
       -0.044948027 0.050237957 -0.056466196 0.010354187
0001a0 21 b4 89 bd ac 84 29 bd 0f c4 9c 3c 7f 90 9e bc
       -0.0672381 -0.04138629 0.019136457 -0.01935601
0001b0 dc b1 f4 3c 03 39 41 3c fc db 18 3c 6c 3e d4 3c
       0.029869966 0.011793378 0.009329792 0.025908671
0001c0 77 46 cb 3c 75 4d 98 bd 3e 30 0e 3d 0b 1a 2a bd
       0.024813874 -0.07436649 0.034713976 -0.041528743
0001d0 3a d1 87 bc b3 9c 03 bc 92 27 42 bd 96 e5 61 bd
       -0.01657926 -0.0080329655 -0.04740102 -0.05515059
0001e0 f0 33 74 3d 5c 3c 67 bc 7a 90 f8 3c 4b 09 88 bc
       0.059619844 -0.014113512 0.03034233 -0.016605994
0001f0 d5 cc 5d bd 0f 2b 06 bd 58 3e 31 3d d7 83 ad bb
       -0.05415042 -0.032755908 0.043272346 -0.0052952575

weight f4 [128, 128]
000000 86 4e 54 bd 18 33 22 3d ff df 3f 3d 22 42 d7 ba
       -0.0518327 0.039599508 0.04684448 -0.0016422907
000010 95 0e 34 3c 3e a2 43 bd 78 69 1e bd c7 aa ac bd
       0.010989805 -0.047762148 -0.0386748 -0.08431011
000020 e3 21 93 bd 49 2a 85 3d 70 52 cf 3c 76 ed 9f 3d
       -0.07184198 0.06502206 0.025307864 0.07808964
000030 42 3d 0c bd 61 19 1e bc 7f e8 0f 3c 0b 14 83 bd
       -0.034238108 -0.0096496055 0.008783459 -0.06400307
000040 68 f6 aa 3d 7f 51 67 ba 51 f8 87 3d 31 d1 ff bc
       0.083477795 -0.00088240945 0.066391595 -0.03122768
000050 2f 57 4e 3d 67 3f b6 3d 7f 93 b1 3d 81 4d b7 3d
       0.050376114 0.08898812 0.08670711 0.089503296
000060 7f 94 6d 3d 36 cc 19 bc 2c 52 86 bb a6 c8 86 bd
       0.058002945 -0.009387067 -0.004099151 -0.065812394
000070 06 85 44 3d 82 03 d9 bc 0f f7 8e 3d f2 6c 8c bd
       0.047978424 -0.02649093 0.069807164 -0.06856717
000080 2f 06 80 bd 09 73 90 3c 68 2f 83 bd 52 dd ae 3d
       -0.062511794 0.017632978 -0.064055264 0.08538307
000090 51 a1 89 3d 3c c3 92 bc 5c 1a c6 3c b9 bb a9 3d
       0.06720222 -0.01791536 0.024182491 0.082877584
0000a0 97 7b 8a bd c2 60 75 3d 7f 5b 15 3d a4 86 43 3d
       -0.06761854 0.05990673 0.03646421 0.047735825
0000b0 e8 e6 a3 3a af 07 9b bd ec 53 9a bd 59 69 b3 3d
       0.0012504729 -0.07569825 -0.07535538 0.08760328
0000c0 95 a3 72 3c 44 0f 34 3d 67 85 2f 3d 66 63 25 bd
       0.014809509 0.04395987 0.04285183 -0.040377997
0000d0 fa ce 91 bd 40 14 2d bd 6b aa 90 bd 2e 3b 21 3c
       -0.07119556 -0.04225564 -0.07063755 0.00984077
0000e0 04 fc ec 3c 7e 7c c0 bd ca 59 40 3d 63 fb 73 bd
       0.028928764 -0.09398745 0.04696063 -0.059565913
0000f0 e0 df 14 bd b5 98 3b 3d 2b f9 7a 3d 4f 1c ab 3d
       -0.036346316 0.04579993 0.06127278 0.08355009
000100 dc 6c 95 3d 7e c8 58 bd a1 a0 fa bb 4f 24 61 bd
       0.07296154 -0.05292558 -0.007648543 -0.054966267
000110 45 4a 42 bd bd af 6f 3d ba e1 f0 bb e5 f3 0a 3d
       -0.04743411 0.058517206 -0.0073511275 0.033924002
000120 80 a2 90 bd 7a 5b 39 bd 08 bb 6e bb 0e 32 03 bc
       -0.070622444 -0.045253254 -0.0036427397 -0.008007539
000130 69 f6 0d 3d c2 09 ad bd e8 91 8a 3d d0 d4 62 3b
       0.034658823 -0.08449127 0.06766111 0.003461171
000140 43 72 95 3d e9 13 8d 3d 7c a4 82 bd 32 ef ad bd
       0.07297184 0.06888563 -0.06379029 -0.084928885
000150 74 dd 8b bd e9 c3 94 bd 56 af 6a 3d f4 7c 5a 3d
       -0.06829348 -0.072639294 0.05729612 0.05334182
000160 55 b5 c6 bd b5 5c 94 3d 84 2d 79 3c 80 67 61 bd
       -0.09702555 0.07244245 0.015208606 -0.055030346
000170 87 2c 61 3d c2 f2 8c 3d 80 83 2a bd a4 a4 2e 3d
       0.054974105 0.0688224 -0.041629314 0.042637482
000180 05 69 af bd 11 09 83 3d b5 58 a5 bc 25 1d af bd
       -0.08564953 0.06398214 -0.0201839 -0.08550481
000190 bb ae 37 3d 2e 03 2a bd 6e 8f 38 3d 8d b1 cf bc
       0.04484437 -0.04150694 0.04505866 -0.025353217
0001a0 03 2d 5f 3d 10 13 a8 3d 51 03 89 3d c3 6e 40 3d
       0.054486286 0.08206761 0.06690086 0.04698063
0001b0 d7 18 fe 3c 83 81 19 3d 11 a4 97 3d 4f 71 cc bc
       0.031017704 0.037477028 0.0740434 -0.024956373
0001c0 07 f3 99 3d 4f 65 1d bd 95 3b fe 3c b4 79 06 3d
       0.07517057 -0.038426694 0.03103427 0.03283091
0001d0 56 81 29 3d 9c 43 2f 3c 84 97 86 bd 6f f2 a6 3c
       0.04138311 0.010697272 -0.06571868 0.020379273
0001e0 c8 63 2f 3d fc 59 aa 3d 8d 24 81 bd b7 1e 2d 3d
       0.04281977 0.083179444 -0.063058 0.04226562
0001f0 38 eb e4 3c d2 91 bc 3d eb 14 50 bc c4 bd 48 3d
       0.027944192 0.092075005 -0.0127003 0.0490091
000200 bd 69 f0 3c 5e 18 9b 3d b4 c7 a7 bd 5d d7 0f 3c
       0.029347295 0.07573007 -0.08192387 0.008779374
000210 1b 96 ce 3c b2 45 36 3d bb 0f 01 3d 78 57 44 bc
       0.02521806 0.04450006 0.031509142 -0.011983745
000220 52 5b 48 bd ce 3b a2 bd 8f 8e 8a 3d 70 d4 96 3b
       -0.048915215 -0.07921563 0.06765472 0.0046029612
000230 84 77 61 bd 90 d0 4d 3d d0 8f 2f bd 9e 58 a3 bd
       -0.05504562 0.05024773 -0.04286176 -0.07975887
000240 27 b8 cb 3b 77 98 87 3d a4 51 85 bd 8b 58 54 3d
       0.006217021 0.06620877 -0.06509712 0.051842254
000250 be 5a 75 bd c8 a0 4f 3c 06 3e d7 bc a1 3c 35 bc
       -0.05990099 0.012672611 -0.026274692 -0.011061818
000260 4b 07 43 3d 19 8c fa 3b 34 cc 46 bd d6 98 8f 3d
       0.047614377 0.0076460955 -0.048534587 0.07011573
000270 df 75 66 bd 94 cc 2e bb 00 bb a7 3d 80 5e b6 3d
       -0.056264754 -0.002667223 0.08189964 0.08904743
000280 83 8c ab bd 04 41 d5 bc 23 84 92 3d 7a d2 50 3d
       -0.0837641 -0.026031978 0.07154109 0.050981976
000290 7c 72 4e bd 92 48 c4 bc b7 a2 b5 bc 54 a2 28 3d
       -0.05040215 -0.023960385 -0.022172315 0.041170433
0002a0 08 23 89 3c 61 95 6b 3d 3a e3 95 3d 44 58 0e bd
       0.016740337 0.057515506 0.07318731 -0.034752145
0002b0 2c be a7 3c c8 c4 d8 3c 46 14 88 3d 24 5a 9f bd
       0.020476423 0.02646102 0.06644492 -0.07780865
0002c0 eb 68 b3 3c 26 63 16 3d 91 94 32 bc 24 40 2a bd
       0.021900615 0.03671565 -0.010899679 -0.041565076
0002d0 26 3b 5c bc 55 5e a8 bd 3b 4c de 3a 75 ce 58 bc
       -0.013441836 -0.082211174 0.0016959974 -0.013232817
0002e0 5e 32 6f bd bf 34 f9 3c 14 05 a8 bd 50 3b 21 3d
       -0.058397643 0.03042066 -0.082040936 0.039363205
0002f0 d8 df 31 3c 26 71 89 3d b8 95 8d bd 9c cb e9 3b
       0.010856591 0.067110345 -0.06913322 0.007134868
000300 da e6 49 3a 0c f0 87 bc 70 4a 3c bd f7 74 6d 3d
       0.0007701941 -0.016593955 -0.045969427 0.057972874
000310 92 b7 4c 3c 49 93 2a 3d 7f cb bd bc ae 45 91 bd
       0.012494938 0.04164437 -0.023168324 -0.070933685
000320 f6 95 e5 3c 8b db 01 bc 8e e2 ba bd fc 5a a5 bd
       0.028025609 -0.007925878 -0.09125243 -0.080739945
000330 0e 49 8f 3d 80 74 52 3d 83 dc a9 3d f8 91 54 bc
       0.06996356 0.051380634 0.082940124 -0.012974255
000340 e8 06 a5 bd 6d c8 c8 bc 4a 89 c8 bc ec 8c bf 3d
       -0.08057958 -0.024509633 -0.024479527 0.093530506
000350 0f 54 b8 bd 6a 20 e0 bb 34 87 b0 3c f7 57 85 3d
       -0.09000408 -0.0068398016 0.021548845 0.065109186
000360 90 5a ee bc 61 48 6b 3c 5c 3d ce bc 17 cc 1e 3d
       -0.029095918 0.014360518 -0.025175743 0.038768854
000370 c6 88 80 bd 25 4d 2f 3d 1a 66 8a 3d 62 5a 7f 3d
       -0.062760875 0.04279818 0.067577556 0.062342055
000380 8e e2 4c 3d 75 cf 3b bd 2f 23 61 3d cd 5c 52 bc
       0.050020747 -0.045852143 0.054965194 -0.012839508
000390 5e b5 a0 3c cb ad a4 bd a8 75 09 bd 7d 45 b2 3d
       0.019617733 -0.08040961 -0.03355947 0.0870466
0003a0 71 37 2a bc 6a 30 30 bd 66 b5 2a bd f7 f5 25 bd
       -0.010389195 -0.04301492 -0.0416769 -0.040517773
0003b0 2f f7 63 3d b6 9e a0 bb 22 13 eb bc 15 44 aa 3d
       0.055655655 -0.0049017323 -0.028695647 0.08313767
0003c0 ac db 22 bb 2d fe 6f bd d1 79 a6 bd 48 af ab bd
       -0.0024850173 -0.05859201 -0.081287034 -0.083830416
0003d0 a6 7e 1d bc f8 f5 8d 3d 89 9d 5a bd 27 33 94 bd
       -0.009612715 0.069316804 -0.053372893 -0.07236319
0003e0 8c 9a 27 bc da 12 8f 3d dd 67 ef bc a8 8a ae 3c
       -0.010229718 0.069860175 -0.02922433 0.02130635
0003f0 47 8c f1 3a 7f 16 6e 3d bc b7 cc bc a7 5c 7b bc
       0.0018428647 0.058126923 -0.024989955 -0.015341914
